…
Path:  Daten FERTIG/30.20.txt
Path:  Daten FERTIG/31.20.txt
len(L_train_States)  //  len(L_train_labels):  552   //   552
Path:  Daten FERTIG/32.20.txt
len(L_test_States)  //  len(L_test_labels):  257   //   257
Durchs.: Targ_Proz:  0.0092
Model: "model"
_________________________________________________________________
Layer (type)                 Output Shape              Param #   
=================================================================
input_1 (InputLayer)         [(None, 399)]             0         
_________________________________________________________________
dense (Dense)                (None, 350)               140000    
_________________________________________________________________
dense_1 (Dense)              (None, 300)               105300    
_________________________________________________________________
dense_2 (Dense)              (None, 250)               75250     
_________________________________________________________________
dense_3 (Dense)              (None, 200)               50200     
_________________________________________________________________
dense_4 (Dense)              (None, 150)               30150     
_________________________________________________________________
dense_5 (Dense)              (None, 100)               15100     
_________________________________________________________________
dense_6 (Dense)              (None, 50)                5050      
_________________________________________________________________
dense_7 (Dense)              (None, 100)               5100      
_________________________________________________________________
dense_8 (Dense)              (None, 150)               15150     
_________________________________________________________________
dense_9 (Dense)              (None, 200)               30200     
_________________________________________________________________
dense_10 (Dense)             (None, 250)               50250     
_________________________________________________________________
dense_11 (Dense)             (None, 300)               75300     
_________________________________________________________________
dense_12 (Dense)             (None, 350)               105350    
_________________________________________________________________
dense_13 (Dense)             (None, 399)               140049    
=================================================================
Total params: 842,449
Trainable params: 842,449
Non-trainable params: 0
_________________________________________________________________
Model: "model_1"
_________________________________________________________________
Layer (type)                 Output Shape              Param #   
=================================================================
input_1 (InputLayer)         [(None, 399)]             0         
_________________________________________________________________
dense (Dense)                (None, 350)               140000    
_________________________________________________________________
dense_1 (Dense)              (None, 300)               105300    
_________________________________________________________________
dense_2 (Dense)              (None, 250)               75250     
_________________________________________________________________
dense_3 (Dense)              (None, 200)               50200     
_________________________________________________________________
dense_4 (Dense)              (None, 150)               30150     
_________________________________________________________________
dense_5 (Dense)              (None, 100)               15100     
_________________________________________________________________
dense_6 (Dense)              (None, 50)                5050      
=================================================================
Total params: 421,050
Trainable params: 421,050
Non-trainable params: 0
_________________________________________________________________
BEGINNNING 1:  [… BEGINNNING 2:  [… BEGINNNING 3:  [… BEGINNNING 4:  [… BEGINNNING 5:  [… BEGINNNING 6:  [… Epoch 1/100
552/552 - 3s - loss: 0.6833 - accuracy: 0.0000e+00 - val_loss: 0.6694 - val_accuracy: 0.0000e+00
…
